…
<div class=3D"jp-RenderedText jp-OutputArea-output" data-mime-type=3D"text/=
plain">
<pre>Model: "YOLO"
_________________________________________________________________
Layer (type)                 Output Shape              Param #  =20
=3D=3D=3D=3D=3D=3D=3D=3D=3D=3D=3D=3D=3D=3D=3D=3D=3D=3D=3D=3D=3D=3D=3D=3D=3D=
=3D=3D=3D=3D=3D=3D=3D=3D=3D=3D=3D=3D=3D=3D=3D=3D=3D=3D=3D=3D=3D=3D=3D=3D=3D=
=3D=3D=3D=3D=3D=3D=3D=3D=3D=3D=3D=3D=3D=3D=3D
input_1 (InputLayer)         [(None, 448, 448, 3)]     0        =20
_________________________________________________________________
conv2d (Conv2D)              (None, 224, 224, 64)      9472     =20
_________________________________________________________________
leaky_re_lu (LeakyReLU)      (None, 224, 224, 64)      0        =20
_________________________________________________________________
max_pooling2d (MaxPooling2D) (None, 112, 112, 64)      0        =20
_________________________________________________________________
conv2d_1 (Conv2D)            (None, 112, 112, 192)     110784   =20
_________________________________________________________________
leaky_re_lu_1 (LeakyReLU)    (None, 112, 112, 192)     0        =20
_________________________________________________________________
max_pooling2d_1 (MaxPooling2 (None, 56, 56, 192)       0        =20
_________________________________________________________________
conv2d_2 (Conv2D)            (None, 56, 56, 128)       24704    =20
_________________________________________________________________
leaky_re_lu_2 (LeakyReLU)    (None, 56, 56, 128)       0        =20
_________________________________________________________________
conv2d_3 (Conv2D)            (None, 56, 56, 256)       295168   =20
_________________________________________________________________
leaky_re_lu_3 (LeakyReLU)    (None, 56, 56, 256)       0        =20
_________________________________________________________________
conv2d_4 (Conv2D)            (None, 56, 56, 256)       65792    =20
_________________________________________________________________
leaky_re_lu_4 (LeakyReLU)    (None, 56, 56, 256)       0        =20
_________________________________________________________________
conv2d_5 (Conv2D)            (None, 56, 56, 512)       1180160  =20
_________________________________________________________________
leaky_re_lu_5 (LeakyReLU)    (None, 56, 56, 512)       0        =20
_________________________________________________________________
max_pooling2d_2 (MaxPooling2 (None, 28, 28, 512)       0        =20
_________________________________________________________________
conv2d_6 (Conv2D)            (None, 28, 28, 256)       131328   =20
_________________________________________________________________
leaky_re_lu_6 (LeakyReLU)    (None, 28, 28, 256)       0        =20
_________________________________________________________________
conv2d_7 (Conv2D)            (None, 28, 28, 512)       1180160  =20
_________________________________________________________________
leaky_re_lu_7 (LeakyReLU)    (None, 28, 28, 512)       0        =20
_________________________________________________________________
conv2d_8 (Conv2D)            (None, 28, 28, 256)       131328   =20
_________________________________________________________________
leaky_re_lu_8 (LeakyReLU)    (None, 28, 28, 256)       0        =20
_________________________________________________________________
conv2d_9 (Conv2D)            (None, 28, 28, 512)       1180160  =20
_________________________________________________________________
leaky_re_lu_9 (LeakyReLU)    (None, 28, 28, 512)       0        =20
_________________________________________________________________
conv2d_10 (Conv2D)           (None, 28, 28, 256)       131328   =20
_________________________________________________________________
leaky_re_lu_10 (LeakyReLU)   (None, 28, 28, 256)       0        =20
_________________________________________________________________
conv2d_11 (Conv2D)           (None, 28, 28, 512)       1180160  =20
_________________________________________________________________
leaky_re_lu_11 (LeakyReLU)   (None, 28, 28, 512)       0        =20
_________________________________________________________________
conv2d_12 (Conv2D)           (None, 28, 28, 256)       131328   =20
_________________________________________________________________
leaky_re_lu_12 (LeakyReLU)   (None, 28, 28, 256)       0        =20
_________________________________________________________________
conv2d_13 (Conv2D)           (None, 28, 28, 512)       1180160  =20
_________________________________________________________________
leaky_re_lu_13 (LeakyReLU)   (None, 28, 28, 512)       0        =20
_________________________________________________________________
conv2d_14 (Conv2D)           (None, 28, 28, 512)       262656   =20
_________________________________________________________________
leaky_re_lu_14 (LeakyReLU)   (None, 28, 28, 512)       0        =20
_________________________________________________________________
conv2d_15 (Conv2D)           (None, 28, 28, 1024)      4719616  =20
_________________________________________________________________
leaky_re_lu_15 (LeakyReLU)   (None, 28, 28, 1024)      0        =20
_________________________________________________________________
max_pooling2d_3 (MaxPooling2 (None, 14, 14, 1024)      0        =20
_________________________________________________________________
conv2d_16 (Conv2D)           (None, 14, 14, 512)       524800   =20
_________________________________________________________________
leaky_re_lu_16 (LeakyReLU)   (None, 14, 14, 512)       0        =20
_________________________________________________________________
conv2d_17 (Conv2D)           (None, 14, 14, 1024)      4719616  =20
_________________________________________________________________
leaky_re_lu_17 (LeakyReLU)   (None, 14, 14, 1024)      0        =20
_________________________________________________________________
conv2d_18 (Conv2D)           (None, 14, 14, 512)       524800   =20
_________________________________________________________________
leaky_re_lu_18 (LeakyReLU)   (None, 14, 14, 512)       0        =20
_________________________________________________________________
conv2d_19 (Conv2D)           (None, 14, 14, 1024)      4719616  =20
_________________________________________________________________
leaky_re_lu_19 (LeakyReLU)   (None, 14, 14, 1024)      0        =20
_________________________________________________________________
conv2d_20 (Conv2D)           (None, 14, 14, 1024)      9438208  =20
_________________________________________________________________
leaky_re_lu_20 (LeakyReLU)   (None, 14, 14, 1024)      0        =20
_________________________________________________________________
conv2d_21 (Conv2D)           (None, 7, 7, 1024)        9438208  =20
_________________________________________________________________
leaky_re_lu_21 (LeakyReLU)   (None, 7, 7, 1024)        0        =20
_________________________________________________________________
conv2d_22 (Conv2D)           (None, 7, 7, 1024)        9438208  =20
_________________________________________________________________
leaky_re_lu_22 (LeakyReLU)   (None, 7, 7, 1024)        0        =20
_________________________________________________________________
conv2d_23 (Conv2D)           (None, 7, 7, 1024)        9438208  =20
_________________________________________________________________
leaky_re_lu_23 (LeakyReLU)   (None, 7, 7, 1024)        0        =20
_________________________________________________________________
flatten (Flatten)            (None, 50176)             0        =20
_________________________________________________________________
dense (Dense)                (None, 4096)              205524992=20
_________________________________________________________________
leaky_re_lu_24 (LeakyReLU)   (None, 4096)              0        =20
_________________________________________________________________
dense_1 (Dense)              (None, 1470)              6022590  =20
=3D=3D=3D=3D=3D=3D=3D=3D=3D=3D=3D=3D=3D=3D=3D=3D=3D=3D=3D=3D=3D=3D=3D=3D=3D=
=3D=3D=3D=3D=3D=3D=3D=3D=3D=3D=3D=3D=3D=3D=3D=3D=3D=3D=3D=3D=3D=3D=3D=3D=3D=
=3D=3D=3D=3D=3D=3D=3D=3D=3D=3D=3D=3D=3D=3D=3D
Total params: 271,703,550
Trainable params: 271,703,550
Non-trainable params: 0
_________________________________________________________________
</pre>
</div>
</div>

</div>

</div>

</div>
<div class=3D"jp-Cell jp-MarkdownCell jp-Notebook-cell">
…
bp3-intent-danger > .bp3-icon:first-child, .bp3-callout.bp3-intent-danger .=
bp3-heading { color: rgb(194, 48, 48); }

.bp3-dark .bp3-callout.bp3-intent-danger { background-color: rgba(219, 55, =
55, 0.25); }

.bp3-dark .bp3-callout.bp3-intent-danger[class*=3D"bp3-icon-"]::before, .bp=
3-dark .bp3-callout.bp3-intent-danger > .bp3-icon:first-child, .bp3-dark .b=
p3-callout.bp3-intent-danger .bp3-heading { color: rgb(255, 115, 115); }

.bp3-running-text .bp3-callout { margin: 20px 0px; }

.bp3-card { background-color: rgb(255, 255, 255); border-radius: 3px; box-s=
hadow: rgba(16, 22, 26, 0.15) 0px 0px 0px 1px, rgba(16, 22, 26, 0) 0px 0px =
0px, rgba(16, 22, 26, 0) 0px 0px 0px; padding: 20px; transition: transform =
200ms cubic-bezier(0.4, 1, 0.75, 0.9) 0s, box-shadow 200ms cubic-bezier(0.4=
, 1, 0.75, 0.9) 0s, -webkit-transform 200ms cubic-bezier(0.4, 1, 0.75, 0.9)=
 0s, -webkit-box-shadow 200ms cubic-bezier(0.4, 1, 0.75, 0.9) 0s; }

.bp3-card.bp3-dark, .bp3-dark .bp3-card { background-color: rgb(48, 64, 77)=
; box-shadow: rgba(16, 22, 26, 0.4) 0px 0px 0px 1px, rgba(16, 22, 26, 0) 0p=
x 0px 0px, rgba(16, 22, 26, 0) 0px 0px 0px; }

.bp3-elevation-0 { box-shadow: rgba(16, 22, 26, 0.15) 0px 0px 0px 1px, rgba=
(16, 22, 26, 0) 0px 0px 0px, rgba(16, 22, 26, 0) 0px 0px 0px; }

.bp3-elevation-0.bp3-dark, .bp3-dark .bp3-elevation-0 { box-shadow: rgba(16=
, 22, 26, 0.4) 0px 0px 0px 1px, rgba(16, 22, 26, 0) 0px 0px 0px, rgba(16, 2=
2, 26, 0) 0px 0px 0px; }

.bp3-elevation-1 { box-shadow: rgba(16, 22, 26, 0.1) 0px 0px 0px 1px, rgba(=
16, 22, 26, 0) 0px 0px 0px, rgba(16, 22, 26, 0.2) 0px 1px 1px; }

.bp3-elevation-1.bp3-dark, .bp3-dark .bp3-elevation-1 { box-shadow: rgba(16=
, 22, 26, 0.2) 0px 0px 0px 1px, rgba(16, 22, 26, 0) 0px 0px 0px, rgba(16, 2=
2, 26, 0.4) 0px 1px 1px; }

.bp3-elevation-2 { box-shadow: rgba(16, 22, 26, 0.1) 0px 0px 0px 1px, rgba(=
16, 22, 26, 0.2) 0px 1px 1px, rgba(16, 22, 26, 0.2) 0px 2px 6px; }

.bp3-elevation-2.bp3-dark, .bp3-dark .bp3-elevation-2 { box-shadow: rgba(16=
, 22, 26, 0.2) 0px 0px 0px 1px, rgba(16, 22, 26, 0.4) 0px 1px 1px, rgba(16,=
 22, 26, 0.4) 0px 2px 6px; }

.bp3-elevation-3 { box-shadow: rgba(16, 22, 26, 0.1) 0px 0px 0px 1px, rgba(=
…
-webkit-box-flex: 0; flex: 0 0 auto; padding: 10px 20px; position: relative=
; }

.bp3-dark .bp3-drawer-footer { box-shadow: rgba(16, 22, 26, 0.4) 0px 1px 0p=
x inset; }

.bp3-editable-text { cursor: text; display: inline-block; max-width: 100%; =
position: relative; vertical-align: top; white-space: nowrap; }

.bp3-editable-text::before { inset: -3px; position: absolute; border-radius=
: 3px; content: ""; transition: background-color 100ms cubic-bezier(0.4, 1,=
 0.75, 0.9) 0s, box-shadow 100ms cubic-bezier(0.4, 1, 0.75, 0.9) 0s, -webki=
t-box-shadow 100ms cubic-bezier(0.4, 1, 0.75, 0.9) 0s; }

.bp3-editable-text:hover::before { box-shadow: rgba(19, 124, 189, 0) 0px 0p=
x 0px 0px, rgba(19, 124, 189, 0) 0px 0px 0px 0px, rgba(16, 22, 26, 0.15) 0p=
x 0px 0px 1px inset; }

.bp3-editable-text.bp3-editable-text-editing::before { background-color: rg=
b(255, 255, 255); box-shadow: rgb(19, 124, 189) 0px 0px 0px 1px, rgba(19, 1=
24, 189, 0.3) 0px 0px 0px 3px, rgba(16, 22, 26, 0.2) 0px 1px 1px inset; }

.bp3-editable-text.bp3-disabled::before { box-shadow: none; }

.bp3-editable-text.bp3-intent-primary .bp3-editable-text-input, .bp3-editab=
le-text.bp3-intent-primary .bp3-editable-text-content { color: rgb(19, 124,=
 189); }

.bp3-editable-text.bp3-intent-primary:hover::before { box-shadow: rgba(19, =
124, 189, 0) 0px 0px 0px 0px, rgba(19, 124, 189, 0) 0px 0px 0px 0px, rgba(1=
9, 124, 189, 0.4) 0px 0px 0px 1px inset; }

.bp3-editable-text.bp3-intent-primary.bp3-editable-text-editing::before { b=
ox-shadow: rgb(19, 124, 189) 0px 0px 0px 1px, rgba(19, 124, 189, 0.3) 0px 0=
px 0px 3px, rgba(16, 22, 26, 0.2) 0px 1px 1px inset; }

.bp3-editable-text.bp3-intent-success .bp3-editable-text-input, .bp3-editab=
le-text.bp3-intent-success .bp3-editable-text-content { color: rgb(15, 153,=
 96); }

.bp3-editable-text.bp3-intent-success:hover::before { box-shadow: rgba(15, =
153, 96, 0) 0px 0px 0px 0px, rgba(15, 153, 96, 0) 0px 0px 0px 0px, rgba(15,=
 153, 96, 0.4) 0px 0px 0px 1px inset; }

.bp3-editable-text.bp3-intent-success.bp3-editable-text-editing::before { b=
ox-shadow: rgb(15, 153, 96) 0px 0px 0px 1px, rgba(15, 153, 96, 0.3) 0px 0px=
 0px 3px, rgba(16, 22, 26, 0.2) 0px 1px 1px inset; }

.bp3-editable-text.bp3-intent-warning .bp3-editable-text-input, .bp3-editab=
le-text.bp3-intent-warning .bp3-editable-text-content { color: rgb(217, 130=
, 43); }

.bp3-editable-text.bp3-intent-warning:hover::before { box-shadow: rgba(217,=
 130, 43, 0) 0px 0px 0px 0px, rgba(217, 130, 43, 0) 0px 0px 0px 0px, rgba(2=
17, 130, 43, 0.4) 0px 0px 0px 1px inset; }

.bp3-editable-text.bp3-intent-warning.bp3-editable-text-editing::before { b=
ox-shadow: rgb(217, 130, 43) 0px 0px 0px 1px, rgba(217, 130, 43, 0.3) 0px 0=
px 0px 3px, rgba(16, 22, 26, 0.2) 0px 1px 1px inset; }

.bp3-editable-text.bp3-intent-danger .bp3-editable-text-input, .bp3-editabl=
e-text.bp3-intent-danger .bp3-editable-text-content { color: rgb(219, 55, 5=
5); }

.bp3-editable-text.bp3-intent-danger:hover::before { box-shadow: rgba(219, =
55, 55, 0) 0px 0px 0px 0px, rgba(219, 55, 55, 0) 0px 0px 0px 0px, rgba(219,=
 55, 55, 0.4) 0px 0px 0px 1px inset; }

.bp3-editable-text.bp3-intent-danger.bp3-editable-text-editing::before { bo=
x-shadow: rgb(219, 55, 55) 0px 0px 0px 1px, rgba(219, 55, 55, 0.3) 0px 0px =
0px 3px, rgba(16, 22, 26, 0.2) 0px 1px 1px inset; }

.bp3-dark .bp3-editable-text:hover::before { box-shadow: rgba(19, 124, 189,=
 0) 0px 0px 0px 0px, rgba(19, 124, 189, 0) 0px 0px 0px 0px, rgba(255, 255, =
255, 0.15) 0px 0px 0px 1px inset; }

.bp3-dark .bp3-editable-text.bp3-editable-text-editing::before { background=
-color: rgba(16, 22, 26, 0.3); box-shadow: rgb(19, 124, 189) 0px 0px 0px 1p=
x, rgba(19, 124, 189, 0.3) 0px 0px 0px 3px, rgba(16, 22, 26, 0.3) 0px 0px 0=
px 1px inset, rgba(16, 22, 26, 0.4) 0px 1px 1px inset; }

.bp3-dark .bp3-editable-text.bp3-disabled::before { box-shadow: none; }

.bp3-dark .bp3-editable-text.bp3-intent-primary .bp3-editable-text-content =
{ color: rgb(72, 175, 240); }

.bp3-dark .bp3-editable-text.bp3-intent-primary:hover::before { box-shadow:=
 rgba(72, 175, 240, 0) 0px 0px 0px 0px, rgba(72, 175, 240, 0) 0px 0px 0px 0=
px, rgba(72, 175, 240, 0.4) 0px 0px 0px 1px inset; }

.bp3-dark .bp3-editable-text.bp3-intent-primary.bp3-editable-text-editing::=
before { box-shadow: rgb(72, 175, 240) 0px 0px 0px 1px, rgba(72, 175, 240, =
0.3) 0px 0px 0px 3px, rgba(16, 22, 26, 0.3) 0px 0px 0px 1px inset, rgba(16,=
 22, 26, 0.4) 0px 1px 1px inset; }

.bp3-dark .bp3-editable-text.bp3-intent-success .bp3-editable-text-content =
{ color: rgb(61, 204, 145); }

.bp3-dark .bp3-editable-text.bp3-intent-success:hover::before { box-shadow:=
 rgba(61, 204, 145, 0) 0px 0px 0px 0px, rgba(61, 204, 145, 0) 0px 0px 0px 0=
px, rgba(61, 204, 145, 0.4) 0px 0px 0px 1px inset; }

.bp3-dark .bp3-editable-text.bp3-intent-success.bp3-editable-text-editing::=
before { box-shadow: rgb(61, 204, 145) 0px 0px 0px 1px, rgba(61, 204, 145, =
0.3) 0px 0px 0px 3px, rgba(16, 22, 26, 0.3) 0px 0px 0px 1px inset, rgba(16,=
 22, 26, 0.4) 0px 1px 1px inset; }

.bp3-dark .bp3-editable-text.bp3-intent-warning .bp3-editable-text-content =
{ color: rgb(255, 179, 102); }

.bp3-dark .bp3-editable-text.bp3-intent-warning:hover::before { box-shadow:=
 rgba(255, 179, 102, 0) 0px 0px 0px 0px, rgba(255, 179, 102, 0) 0px 0px 0px=
 0px, rgba(255, 179, 102, 0.4) 0px 0px 0px 1px inset; }

.bp3-dark .bp3-editable-text.bp3-intent-warning.bp3-editable-text-editing::=
before { box-shadow: rgb(255, 179, 102) 0px 0px 0px 1px, rgba(255, 179, 102=
, 0.3) 0px 0px 0px 3px, rgba(16, 22, 26, 0.3) 0px 0px 0px 1px inset, rgba(1=
6, 22, 26, 0.4) 0px 1px 1px inset; }

.bp3-dark .bp3-editable-text.bp3-intent-danger .bp3-editable-text-content {=
 color: rgb(255, 115, 115); }

.bp3-dark .bp3-editable-text.bp3-intent-danger:hover::before { box-shadow: =
rgba(255, 115, 115, 0) 0px 0px 0px 0px, rgba(255, 115, 115, 0) 0px 0px 0px =
0px, rgba(255, 115, 115, 0.4) 0px 0px 0px 1px inset; }

.bp3-dark .bp3-editable-text.bp3-intent-danger.bp3-editable-text-editing::b=
efore { box-shadow: rgb(255, 115, 115) 0px 0px 0px 1px, rgba(255, 115, 115,=
 0.3) 0px 0px 0px 3px, rgba(16, 22, 26, 0.3) 0px 0px 0px 1px inset, rgba(16=
, 22, 26, 0.4) 0px 1px 1px inset; }

.bp3-editable-text-input, .bp3-editable-text-content { color: inherit; disp=
lay: inherit; font: inherit; letter-spacing: inherit; max-width: inherit; m=
in-width: inherit; position: relative; resize: none; text-transform: inheri=
t; vertical-align: top; }
…
.bp3-file-upload-input:active::after { background-color: rgb(216, 225, 232)=
; background-image: none; box-shadow: rgba(16, 22, 26, 0.2) 0px 0px 0px 1px=
 inset, rgba(16, 22, 26, 0.2) 0px 1px 2px inset; }

.bp3-large .bp3-file-upload-input { font-size: 16px; height: 40px; line-hei=
ght: 40px; padding-right: 95px; }

.bp3-large .bp3-file-upload-input[type=3D"search"], .bp3-large .bp3-file-up=
load-input.bp3-round { padding: 0px 15px; }

.bp3-large .bp3-file-upload-input::after { min-height: 30px; min-width: 30p=
x; line-height: 30px; margin: 5px; width: 85px; }

.bp3-dark .bp3-file-upload-input { background: rgba(16, 22, 26, 0.3); box-s=
hadow: rgba(19, 124, 189, 0) 0px 0px 0px 0px, rgba(19, 124, 189, 0) 0px 0px=
 0px 0px, rgba(19, 124, 189, 0) 0px 0px 0px 0px, rgba(16, 22, 26, 0.3) 0px =
0px 0px 1px inset, rgba(16, 22, 26, 0.4) 0px 1px 1px inset; color: rgba(167=
, 182, 194, 0.6); }

.bp3-dark .bp3-file-upload-input::-webkit-input-placeholder { color: rgba(1=
67, 182, 194, 0.6); }

.bp3-dark .bp3-file-upload-input::placeholder { color: rgba(167, 182, 194, =
0.6); }

.bp3-dark .bp3-file-upload-input:focus { box-shadow: rgb(19, 124, 189) 0px =
0px 0px 1px, rgb(19, 124, 189) 0px 0px 0px 1px, rgba(19, 124, 189, 0.3) 0px=
 0px 0px 3px, rgba(16, 22, 26, 0.3) 0px 0px 0px 1px inset, rgba(16, 22, 26,=
 0.4) 0px 1px 1px inset; }

.bp3-dark .bp3-file-upload-input[readonly] { box-shadow: rgba(16, 22, 26, 0=
.4) 0px 0px 0px 1px inset; }

.bp3-dark .bp3-file-upload-input:disabled, .bp3-dark .bp3-file-upload-input=
.bp3-disabled { background: rgba(57, 75, 89, 0.5); box-shadow: none; color:=
…
.bp3-input-group.bp3-small .bp3-input:not(:first-child) { padding-left: 24p=
x; }

.bp3-input-group.bp3-small .bp3-input:not(:last-child) { padding-right: 24p=
x; }

.bp3-input-group.bp3-fill { -webkit-box-flex: 1; flex: 1 1 auto; width: 100=
%; }

.bp3-input-group.bp3-round .bp3-button, .bp3-input-group.bp3-round .bp3-inp=
ut, .bp3-input-group.bp3-round .bp3-tag { border-radius: 30px; }

.bp3-dark .bp3-input-group .bp3-icon { color: rgb(167, 182, 194); }

.bp3-dark .bp3-input-group.bp3-disabled .bp3-icon { color: rgba(167, 182, 1=
94, 0.6); }

.bp3-input-group.bp3-intent-primary .bp3-input { box-shadow: rgba(19, 124, =
189, 0) 0px 0px 0px 0px, rgba(19, 124, 189, 0) 0px 0px 0px 0px, rgb(19, 124=
, 189) 0px 0px 0px 1px inset, rgba(16, 22, 26, 0.15) 0px 0px 0px 1px inset,=
 rgba(16, 22, 26, 0.2) 0px 1px 1px inset; }

.bp3-input-group.bp3-intent-primary .bp3-input:focus { box-shadow: rgb(19, =
124, 189) 0px 0px 0px 1px, rgba(19, 124, 189, 0.3) 0px 0px 0px 3px, rgba(16=
, 22, 26, 0.2) 0px 1px 1px inset; }

.bp3-input-group.bp3-intent-primary .bp3-input[readonly] { box-shadow: rgb(=
19, 124, 189) 0px 0px 0px 1px inset; }

.bp3-input-group.bp3-intent-primary .bp3-input:disabled, .bp3-input-group.b=
p3-intent-primary .bp3-input.bp3-disabled { box-shadow: none; }

.bp3-input-group.bp3-intent-primary > .bp3-icon { color: rgb(16, 107, 163);=
 }

.bp3-dark .bp3-input-group.bp3-intent-primary > .bp3-icon { color: rgb(72, =
175, 240); }

.bp3-input-group.bp3-intent-success .bp3-input { box-shadow: rgba(15, 153, =
96, 0) 0px 0px 0px 0px, rgba(15, 153, 96, 0) 0px 0px 0px 0px, rgb(15, 153, =
96) 0px 0px 0px 1px inset, rgba(16, 22, 26, 0.15) 0px 0px 0px 1px inset, rg=
ba(16, 22, 26, 0.2) 0px 1px 1px inset; }

.bp3-input-group.bp3-intent-success .bp3-input:focus { box-shadow: rgb(15, =
153, 96) 0px 0px 0px 1px, rgba(15, 153, 96, 0.3) 0px 0px 0px 3px, rgba(16, =
22, 26, 0.2) 0px 1px 1px inset; }

.bp3-input-group.bp3-intent-success .bp3-input[readonly] { box-shadow: rgb(=
15, 153, 96) 0px 0px 0px 1px inset; }

.bp3-input-group.bp3-intent-success .bp3-input:disabled, .bp3-input-group.b=
p3-intent-success .bp3-input.bp3-disabled { box-shadow: none; }

.bp3-input-group.bp3-intent-success > .bp3-icon { color: rgb(13, 128, 80); =
}

.bp3-dark .bp3-input-group.bp3-intent-success > .bp3-icon { color: rgb(61, =
204, 145); }

.bp3-input-group.bp3-intent-warning .bp3-input { box-shadow: rgba(217, 130,=
 43, 0) 0px 0px 0px 0px, rgba(217, 130, 43, 0) 0px 0px 0px 0px, rgb(217, 13=
0, 43) 0px 0px 0px 1px inset, rgba(16, 22, 26, 0.15) 0px 0px 0px 1px inset,=
 rgba(16, 22, 26, 0.2) 0px 1px 1px inset; }

.bp3-input-group.bp3-intent-warning .bp3-input:focus { box-shadow: rgb(217,=
 130, 43) 0px 0px 0px 1px, rgba(217, 130, 43, 0.3) 0px 0px 0px 3px, rgba(16=
, 22, 26, 0.2) 0px 1px 1px inset; }

.bp3-input-group.bp3-intent-warning .bp3-input[readonly] { box-shadow: rgb(=
217, 130, 43) 0px 0px 0px 1px inset; }

.bp3-input-group.bp3-intent-warning .bp3-input:disabled, .bp3-input-group.b=
p3-intent-warning .bp3-input.bp3-disabled { box-shadow: none; }

.bp3-input-group.bp3-intent-warning > .bp3-icon { color: rgb(191, 115, 38);=
 }

.bp3-dark .bp3-input-group.bp3-intent-warning > .bp3-icon { color: rgb(255,=
 179, 102); }

.bp3-input-group.bp3-intent-danger .bp3-input { box-shadow: rgba(219, 55, 5=
5, 0) 0px 0px 0px 0px, rgba(219, 55, 55, 0) 0px 0px 0px 0px, rgb(219, 55, 5=
5) 0px 0px 0px 1px inset, rgba(16, 22, 26, 0.15) 0px 0px 0px 1px inset, rgb=
a(16, 22, 26, 0.2) 0px 1px 1px inset; }

.bp3-input-group.bp3-intent-danger .bp3-input:focus { box-shadow: rgb(219, =
55, 55) 0px 0px 0px 1px, rgba(219, 55, 55, 0.3) 0px 0px 0px 3px, rgba(16, 2=
2, 26, 0.2) 0px 1px 1px inset; }

.bp3-input-group.bp3-intent-danger .bp3-input[readonly] { box-shadow: rgb(2=
19, 55, 55) 0px 0px 0px 1px inset; }

.bp3-input-group.bp3-intent-danger .bp3-input:disabled, .bp3-input-group.bp=
3-intent-danger .bp3-input.bp3-disabled { box-shadow: none; }

.bp3-input-group.bp3-intent-danger > .bp3-icon { color: rgb(194, 48, 48); }

.bp3-dark .bp3-input-group.bp3-intent-danger > .bp3-icon { color: rgb(255, =
115, 115); }

.bp3-input { appearance: none; background: rgb(255, 255, 255); border: none=
; border-radius: 3px; box-shadow: rgba(19, 124, 189, 0) 0px 0px 0px 0px, rg=
ba(19, 124, 189, 0) 0px 0px 0px 0px, rgba(16, 22, 26, 0.15) 0px 0px 0px 1px=
 inset, rgba(16, 22, 26, 0.2) 0px 1px 1px inset; color: rgb(24, 32, 38); fo=
nt-size: 14px; font-weight: 400; height: 30px; line-height: 30px; outline: =
none; padding: 0px 10px; transition: box-shadow 100ms cubic-bezier(0.4, 1, =
0.75, 0.9) 0s, -webkit-box-shadow 100ms cubic-bezier(0.4, 1, 0.75, 0.9) 0s;=
 vertical-align: middle; }

.bp3-input::-webkit-input-placeholder { color: rgba(92, 112, 128, 0.6); opa=
city: 1; }

.bp3-input::placeholder { color: rgba(92, 112, 128, 0.6); opacity: 1; }

.bp3-input:focus, .bp3-input.bp3-active { box-shadow: rgb(19, 124, 189) 0px=
 0px 0px 1px, rgba(19, 124, 189, 0.3) 0px 0px 0px 3px, rgba(16, 22, 26, 0.2=
) 0px 1px 1px inset; }

.bp3-input[type=3D"search"], .bp3-input.bp3-round { border-radius: 30px; bo=
x-sizing: border-box; padding-left: 10px; }

.bp3-input[readonly] { box-shadow: rgba(16, 22, 26, 0.15) 0px 0px 0px 1px i=
nset; }

.bp3-input:disabled, .bp3-input.bp3-disabled { background: rgba(206, 217, 2=
24, 0.5); box-shadow: none; color: rgba(92, 112, 128, 0.6); cursor: not-all=
owed; resize: none; }

.bp3-input.bp3-large { font-size: 16px; height: 40px; line-height: 40px; }

.bp3-input.bp3-large[type=3D"search"], .bp3-input.bp3-large.bp3-round { pad=
ding: 0px 15px; }

.bp3-input.bp3-small { font-size: 12px; height: 24px; line-height: 24px; pa=
dding-left: 8px; padding-right: 8px; }

.bp3-input.bp3-small[type=3D"search"], .bp3-input.bp3-small.bp3-round { pad=
ding: 0px 12px; }

.bp3-input.bp3-fill { -webkit-box-flex: 1; flex: 1 1 auto; width: 100%; }

.bp3-dark .bp3-input { background: rgba(16, 22, 26, 0.3); box-shadow: rgba(=
19, 124, 189, 0) 0px 0px 0px 0px, rgba(19, 124, 189, 0) 0px 0px 0px 0px, rg=
ba(19, 124, 189, 0) 0px 0px 0px 0px, rgba(16, 22, 26, 0.3) 0px 0px 0px 1px =
inset, rgba(16, 22, 26, 0.4) 0px 1px 1px inset; color: rgb(245, 248, 250); =
}

.bp3-dark .bp3-input::-webkit-input-placeholder { color: rgba(167, 182, 194=
, 0.6); }

.bp3-dark .bp3-input::placeholder { color: rgba(167, 182, 194, 0.6); }

.bp3-dark .bp3-input:focus { box-shadow: rgb(19, 124, 189) 0px 0px 0px 1px,=
 rgb(19, 124, 189) 0px 0px 0px 1px, rgba(19, 124, 189, 0.3) 0px 0px 0px 3px=
, rgba(16, 22, 26, 0.3) 0px 0px 0px 1px inset, rgba(16, 22, 26, 0.4) 0px 1p=
x 1px inset; }

.bp3-dark .bp3-input[readonly] { box-shadow: rgba(16, 22, 26, 0.4) 0px 0px =
0px 1px inset; }

.bp3-dark .bp3-input:disabled, .bp3-dark .bp3-input.bp3-disabled { backgrou=
nd: rgba(57, 75, 89, 0.5); box-shadow: none; color: rgba(167, 182, 194, 0.6=
); }

.bp3-input.bp3-intent-primary { box-shadow: rgba(19, 124, 189, 0) 0px 0px 0=
px 0px, rgba(19, 124, 189, 0) 0px 0px 0px 0px, rgb(19, 124, 189) 0px 0px 0p=
x 1px inset, rgba(16, 22, 26, 0.15) 0px 0px 0px 1px inset, rgba(16, 22, 26,=
 0.2) 0px 1px 1px inset; }

.bp3-input.bp3-intent-primary:focus { box-shadow: rgb(19, 124, 189) 0px 0px=
 0px 1px, rgba(19, 124, 189, 0.3) 0px 0px 0px 3px, rgba(16, 22, 26, 0.2) 0p=
x 1px 1px inset; }

.bp3-input.bp3-intent-primary[readonly] { box-shadow: rgb(19, 124, 189) 0px=
 0px 0px 1px inset; }

.bp3-input.bp3-intent-primary:disabled, .bp3-input.bp3-intent-primary.bp3-d=
isabled { box-shadow: none; }

.bp3-dark .bp3-input.bp3-intent-primary { box-shadow: rgba(19, 124, 189, 0)=
 0px 0px 0px 0px, rgba(19, 124, 189, 0) 0px 0px 0px 0px, rgba(19, 124, 189,=
 0) 0px 0px 0px 0px, rgb(19, 124, 189) 0px 0px 0px 1px inset, rgba(16, 22, =
26, 0.3) 0px 0px 0px 1px inset, rgba(16, 22, 26, 0.4) 0px 1px 1px inset; }

.bp3-dark .bp3-input.bp3-intent-primary:focus { box-shadow: rgb(19, 124, 18=
9) 0px 0px 0px 1px, rgb(19, 124, 189) 0px 0px 0px 1px, rgba(19, 124, 189, 0=
.3) 0px 0px 0px 3px, rgba(16, 22, 26, 0.3) 0px 0px 0px 1px inset, rgba(16, =
22, 26, 0.4) 0px 1px 1px inset; }

.bp3-dark .bp3-input.bp3-intent-primary[readonly] { box-shadow: rgb(19, 124=
, 189) 0px 0px 0px 1px inset; }

.bp3-dark .bp3-input.bp3-intent-primary:disabled, .bp3-dark .bp3-input.bp3-=
intent-primary.bp3-disabled { box-shadow: none; }

.bp3-input.bp3-intent-success { box-shadow: rgba(15, 153, 96, 0) 0px 0px 0p=
x 0px, rgba(15, 153, 96, 0) 0px 0px 0px 0px, rgb(15, 153, 96) 0px 0px 0px 1=
px inset, rgba(16, 22, 26, 0.15) 0px 0px 0px 1px inset, rgba(16, 22, 26, 0.=
2) 0px 1px 1px inset; }

.bp3-input.bp3-intent-success:focus { box-shadow: rgb(15, 153, 96) 0px 0px =
0px 1px, rgba(15, 153, 96, 0.3) 0px 0px 0px 3px, rgba(16, 22, 26, 0.2) 0px =
1px 1px inset; }

.bp3-input.bp3-intent-success[readonly] { box-shadow: rgb(15, 153, 96) 0px =
0px 0px 1px inset; }

.bp3-input.bp3-intent-success:disabled, .bp3-input.bp3-intent-success.bp3-d=
isabled { box-shadow: none; }

.bp3-dark .bp3-input.bp3-intent-success { box-shadow: rgba(15, 153, 96, 0) =
0px 0px 0px 0px, rgba(15, 153, 96, 0) 0px 0px 0px 0px, rgba(15, 153, 96, 0)=
 0px 0px 0px 0px, rgb(15, 153, 96) 0px 0px 0px 1px inset, rgba(16, 22, 26, =
0.3) 0px 0px 0px 1px inset, rgba(16, 22, 26, 0.4) 0px 1px 1px inset; }

.bp3-dark .bp3-input.bp3-intent-success:focus { box-shadow: rgb(15, 153, 96=
) 0px 0px 0px 1px, rgb(15, 153, 96) 0px 0px 0px 1px, rgba(15, 153, 96, 0.3)=
 0px 0px 0px 3px, rgba(16, 22, 26, 0.3) 0px 0px 0px 1px inset, rgba(16, 22,=
 26, 0.4) 0px 1px 1px inset; }

.bp3-dark .bp3-input.bp3-intent-success[readonly] { box-shadow: rgb(15, 153=
, 96) 0px 0px 0px 1px inset; }

.bp3-dark .bp3-input.bp3-intent-success:disabled, .bp3-dark .bp3-input.bp3-=
intent-success.bp3-disabled { box-shadow: none; }

.bp3-input.bp3-intent-warning { box-shadow: rgba(217, 130, 43, 0) 0px 0px 0=
px 0px, rgba(217, 130, 43, 0) 0px 0px 0px 0px, rgb(217, 130, 43) 0px 0px 0p=
x 1px inset, rgba(16, 22, 26, 0.15) 0px 0px 0px 1px inset, rgba(16, 22, 26,=
 0.2) 0px 1px 1px inset; }

.bp3-input.bp3-intent-warning:focus { box-shadow: rgb(217, 130, 43) 0px 0px=
 0px 1px, rgba(217, 130, 43, 0.3) 0px 0px 0px 3px, rgba(16, 22, 26, 0.2) 0p=
x 1px 1px inset; }

.bp3-input.bp3-intent-warning[readonly] { box-shadow: rgb(217, 130, 43) 0px=
 0px 0px 1px inset; }

.bp3-input.bp3-intent-warning:disabled, .bp3-input.bp3-intent-warning.bp3-d=
isabled { box-shadow: none; }

.bp3-dark .bp3-input.bp3-intent-warning { box-shadow: rgba(217, 130, 43, 0)=
 0px 0px 0px 0px, rgba(217, 130, 43, 0) 0px 0px 0px 0px, rgba(217, 130, 43,=
 0) 0px 0px 0px 0px, rgb(217, 130, 43) 0px 0px 0px 1px inset, rgba(16, 22, =
26, 0.3) 0px 0px 0px 1px inset, rgba(16, 22, 26, 0.4) 0px 1px 1px inset; }

.bp3-dark .bp3-input.bp3-intent-warning:focus { box-shadow: rgb(217, 130, 4=
3) 0px 0px 0px 1px, rgb(217, 130, 43) 0px 0px 0px 1px, rgba(217, 130, 43, 0=
.3) 0px 0px 0px 3px, rgba(16, 22, 26, 0.3) 0px 0px 0px 1px inset, rgba(16, =
22, 26, 0.4) 0px 1px 1px inset; }

.bp3-dark .bp3-input.bp3-intent-warning[readonly] { box-shadow: rgb(217, 13=
0, 43) 0px 0px 0px 1px inset; }

.bp3-dark .bp3-input.bp3-intent-warning:disabled, .bp3-dark .bp3-input.bp3-=
intent-warning.bp3-disabled { box-shadow: none; }

.bp3-input.bp3-intent-danger { box-shadow: rgba(219, 55, 55, 0) 0px 0px 0px=
 0px, rgba(219, 55, 55, 0) 0px 0px 0px 0px, rgb(219, 55, 55) 0px 0px 0px 1p=
x inset, rgba(16, 22, 26, 0.15) 0px 0px 0px 1px inset, rgba(16, 22, 26, 0.2=
) 0px 1px 1px inset; }

.bp3-input.bp3-intent-danger:focus { box-shadow: rgb(219, 55, 55) 0px 0px 0=
px 1px, rgba(219, 55, 55, 0.3) 0px 0px 0px 3px, rgba(16, 22, 26, 0.2) 0px 1=
px 1px inset; }

.bp3-input.bp3-intent-danger[readonly] { box-shadow: rgb(219, 55, 55) 0px 0=
px 0px 1px inset; }

.bp3-input.bp3-intent-danger:disabled, .bp3-input.bp3-intent-danger.bp3-dis=
abled { box-shadow: none; }

.bp3-dark .bp3-input.bp3-intent-danger { box-shadow: rgba(219, 55, 55, 0) 0=
px 0px 0px 0px, rgba(219, 55, 55, 0) 0px 0px 0px 0px, rgba(219, 55, 55, 0) =
0px 0px 0px 0px, rgb(219, 55, 55) 0px 0px 0px 1px inset, rgba(16, 22, 26, 0=
.3) 0px 0px 0px 1px inset, rgba(16, 22, 26, 0.4) 0px 1px 1px inset; }

.bp3-dark .bp3-input.bp3-intent-danger:focus { box-shadow: rgb(219, 55, 55)=
 0px 0px 0px 1px, rgb(219, 55, 55) 0px 0px 0px 1px, rgba(219, 55, 55, 0.3) =
0px 0px 0px 3px, rgba(16, 22, 26, 0.3) 0px 0px 0px 1px inset, rgba(16, 22, =
26, 0.4) 0px 1px 1px inset; }

.bp3-dark .bp3-input.bp3-intent-danger[readonly] { box-shadow: rgb(219, 55,=
 55) 0px 0px 0px 1px inset; }

.bp3-dark .bp3-input.bp3-intent-danger:disabled, .bp3-dark .bp3-input.bp3-i=
ntent-danger.bp3-disabled { box-shadow: none; }

textarea.bp3-input { max-width: 100%; padding: 10px; }

textarea.bp3-input, textarea.bp3-input.bp3-large, textarea.bp3-input.bp3-sm=
all { height: auto; line-height: inherit; }

textarea.bp3-input.bp3-small { padding: 8px; }

.bp3-dark textarea.bp3-input { background: rgba(16, 22, 26, 0.3); box-shado=
w: rgba(19, 124, 189, 0) 0px 0px 0px 0px, rgba(19, 124, 189, 0) 0px 0px 0px=
 0px, rgba(19, 124, 189, 0) 0px 0px 0px 0px, rgba(16, 22, 26, 0.3) 0px 0px =
0px 1px inset, rgba(16, 22, 26, 0.4) 0px 1px 1px inset; color: rgb(245, 248=
, 250); }

.bp3-dark textarea.bp3-input::-webkit-input-placeholder { color: rgba(167, =
182, 194, 0.6); }

.bp3-dark textarea.bp3-input::placeholder { color: rgba(167, 182, 194, 0.6)=
; }

.bp3-dark textarea.bp3-input:focus { box-shadow: rgb(19, 124, 189) 0px 0px =
0px 1px, rgb(19, 124, 189) 0px 0px 0px 1px, rgba(19, 124, 189, 0.3) 0px 0px=
 0px 3px, rgba(16, 22, 26, 0.3) 0px 0px 0px 1px inset, rgba(16, 22, 26, 0.4=
) 0px 1px 1px inset; }

.bp3-dark textarea.bp3-input[readonly] { box-shadow: rgba(16, 22, 26, 0.4) =
0px 0px 0px 1px inset; }

.bp3-dark textarea.bp3-input:disabled, .bp3-dark textarea.bp3-input.bp3-dis=
abled { background: rgba(57, 75, 89, 0.5); box-shadow: none; color: rgba(16=
…
tag-input-icon { color: rgb(167, 182, 194); }

.bp3-dark .bp3-tag-input .bp3-input-ghost, .bp3-tag-input.bp3-dark .bp3-inp=
ut-ghost { color: rgb(245, 248, 250); }

.bp3-dark .bp3-tag-input .bp3-input-ghost::-webkit-input-placeholder, .bp3-=
tag-input.bp3-dark .bp3-input-ghost::-webkit-input-placeholder { color: rgb=
a(167, 182, 194, 0.6); }

.bp3-dark .bp3-tag-input .bp3-input-ghost::placeholder, .bp3-tag-input.bp3-=
dark .bp3-input-ghost::placeholder { color: rgba(167, 182, 194, 0.6); }

.bp3-dark .bp3-tag-input.bp3-active, .bp3-tag-input.bp3-dark.bp3-active { b=
ackground-color: rgba(16, 22, 26, 0.3); box-shadow: rgb(19, 124, 189) 0px 0=
px 0px 1px, rgb(19, 124, 189) 0px 0px 0px 1px, rgba(19, 124, 189, 0.3) 0px =
0px 0px 3px, rgba(16, 22, 26, 0.3) 0px 0px 0px 1px inset, rgba(16, 22, 26, =
0.4) 0px 1px 1px inset; }

.bp3-dark .bp3-tag-input.bp3-active.bp3-intent-primary, .bp3-tag-input.bp3-=
dark.bp3-active.bp3-intent-primary { box-shadow: rgb(16, 107, 163) 0px 0px =
0px 1px, rgba(16, 107, 163, 0.3) 0px 0px 0px 3px, rgba(16, 22, 26, 0.3) 0px=
 0px 0px 1px inset, rgba(16, 22, 26, 0.4) 0px 1px 1px inset; }

.bp3-dark .bp3-tag-input.bp3-active.bp3-intent-success, .bp3-tag-input.bp3-=
dark.bp3-active.bp3-intent-success { box-shadow: rgb(13, 128, 80) 0px 0px 0=
px 1px, rgba(13, 128, 80, 0.3) 0px 0px 0px 3px, rgba(16, 22, 26, 0.3) 0px 0=
px 0px 1px inset, rgba(16, 22, 26, 0.4) 0px 1px 1px inset; }

.bp3-dark .bp3-tag-input.bp3-active.bp3-intent-warning, .bp3-tag-input.bp3-=
dark.bp3-active.bp3-intent-warning { box-shadow: rgb(191, 115, 38) 0px 0px =
0px 1px, rgba(191, 115, 38, 0.3) 0px 0px 0px 3px, rgba(16, 22, 26, 0.3) 0px=
 0px 0px 1px inset, rgba(16, 22, 26, 0.4) 0px 1px 1px inset; }

.bp3-dark .bp3-tag-input.bp3-active.bp3-intent-danger, .bp3-tag-input.bp3-d=
ark.bp3-active.bp3-intent-danger { box-shadow: rgb(194, 48, 48) 0px 0px 0px=
 1px, rgba(194, 48, 48, 0.3) 0px 0px 0px 3px, rgba(16, 22, 26, 0.3) 0px 0px=
 0px 1px inset, rgba(16, 22, 26, 0.4) 0px 1px 1px inset; }

.bp3-input-ghost { background: none; border: none; box-shadow: none; paddin=
g: 0px; }

.bp3-input-ghost::-webkit-input-placeholder { color: rgba(92, 112, 128, 0.6=
); opacity: 1; }

.bp3-input-ghost::placeholder { color: rgba(92, 112, 128, 0.6); opacity: 1;=
…
